…
-        "save_period": 1,
-        "verbosity": 2,
-        "monitor": "min val_loss",
-        "early_stop": 10,
-        "tensorboard": true
-    }
-}
\ No newline at end of file
Index: saved/log/My_First_Conv_Model/1027_181806/info.log
===================================================================
--- saved/log/My_First_Conv_Model/1027_181806/info.log	(revision 97e8a598580c3db2483a78021892cac00be810a9)
+++ saved/log/My_First_Conv_Model/1027_181806/info.log	(revision 97e8a598580c3db2483a78021892cac00be810a9)
@@ -1,21 +0,0 @@
-2020-10-27 18:18:32,807 - train - INFO - ConvModel(
-  (conv1): Conv2d(1, 32, kernel_size=(3, 3), stride=(1, 1), padding=(1, 1))
-  (bn1): BatchNorm2d(32, eps=1e-05, momentum=0.1, affine=True, track_running_stats=True)
-  (conv2): Conv2d(32, 32, kernel_size=(3, 3), stride=(1, 1), padding=(1, 1))
-  (bn2): BatchNorm2d(32, eps=1e-05, momentum=0.1, affine=True, track_running_stats=True)
-  (conv3): Conv2d(32, 64, kernel_size=(3, 3), stride=(1, 1), padding=(1, 1))
-  (bn3): BatchNorm2d(64, eps=1e-05, momentum=0.1, affine=True, track_running_stats=True)
-  (conv4): Conv2d(64, 64, kernel_size=(3, 3), stride=(1, 1), padding=(1, 1))
-  (bn4): BatchNorm2d(64, eps=1e-05, momentum=0.1, affine=True, track_running_stats=True)
-  (conv5): Conv2d(64, 128, kernel_size=(3, 3), stride=(1, 1), padding=(1, 1))
-  (bn5): BatchNorm2d(128, eps=1e-05, momentum=0.1, affine=True, track_running_stats=True)
-  (conv6): Conv2d(128, 128, kernel_size=(3, 3), stride=(1, 1), padding=(1, 1))
-  (bn6): BatchNorm2d(128, eps=1e-05, momentum=0.1, affine=True, track_running_stats=True)
-  (conv7): Conv2d(128, 256, kernel_size=(3, 3), stride=(1, 1), padding=(1, 1))
-  (bn7): BatchNorm2d(256, eps=1e-05, momentum=0.1, affine=True, track_running_stats=True)
-  (conv8): Conv2d(256, 256, kernel_size=(3, 3), stride=(1, 1), padding=(1, 1))
-  (bn8): BatchNorm2d(256, eps=1e-05, momentum=0.1, affine=True, track_running_stats=True)
-  (dense1): Linear(in_features=217088, out_features=500, bias=True)
-  (dropout): Dropout(p=0.5, inplace=False)
-  (dense2): Linear(in_features=500, out_features=50, bias=True)
-)
Index: saved/log/My_First_Conv_Model/1027_181921/info.log
===================================================================
--- saved/log/My_First_Conv_Model/1027_181921/info.log	(revision 97e8a598580c3db2483a78021892cac00be810a9)
+++ saved/log/My_First_Conv_Model/1027_181921/info.log	(revision 97e8a598580c3db2483a78021892cac00be810a9)
@@ -1,21 +0,0 @@
-2020-10-27 18:19:47,768 - train - INFO - ConvModel(
-  (conv1): Conv2d(1, 32, kernel_size=(3, 3), stride=(1, 1), padding=(1, 1))
-  (bn1): BatchNorm2d(32, eps=1e-05, momentum=0.1, affine=True, track_running_stats=True)
-  (conv2): Conv2d(32, 32, kernel_size=(3, 3), stride=(1, 1), padding=(1, 1))
-  (bn2): BatchNorm2d(32, eps=1e-05, momentum=0.1, affine=True, track_running_stats=True)
-  (conv3): Conv2d(32, 64, kernel_size=(3, 3), stride=(1, 1), padding=(1, 1))
-  (bn3): BatchNorm2d(64, eps=1e-05, momentum=0.1, affine=True, track_running_stats=True)
-  (conv4): Conv2d(64, 64, kernel_size=(3, 3), stride=(1, 1), padding=(1, 1))
-  (bn4): BatchNorm2d(64, eps=1e-05, momentum=0.1, affine=True, track_running_stats=True)
-  (conv5): Conv2d(64, 128, kernel_size=(3, 3), stride=(1, 1), padding=(1, 1))
-  (bn5): BatchNorm2d(128, eps=1e-05, momentum=0.1, affine=True, track_running_stats=True)
-  (conv6): Conv2d(128, 128, kernel_size=(3, 3), stride=(1, 1), padding=(1, 1))
-  (bn6): BatchNorm2d(128, eps=1e-05, momentum=0.1, affine=True, track_running_stats=True)
-  (conv7): Conv2d(128, 256, kernel_size=(3, 3), stride=(1, 1), padding=(1, 1))
-  (bn7): BatchNorm2d(256, eps=1e-05, momentum=0.1, affine=True, track_running_stats=True)
-  (conv8): Conv2d(256, 256, kernel_size=(3, 3), stride=(1, 1), padding=(1, 1))
-  (bn8): BatchNorm2d(256, eps=1e-05, momentum=0.1, affine=True, track_running_stats=True)
-  (dense1): Linear(in_features=217088, out_features=500, bias=True)
-  (dropout): Dropout(p=0.5, inplace=False)
-  (dense2): Linear(in_features=500, out_features=50, bias=True)
-)
Index: saved/log/My_First_Conv_Model/1027_182053/info.log
===================================================================
--- saved/log/My_First_Conv_Model/1027_182053/info.log	(revision 97e8a598580c3db2483a78021892cac00be810a9)
+++ saved/log/My_First_Conv_Model/1027_182053/info.log	(revision 97e8a598580c3db2483a78021892cac00be810a9)
@@ -1,21 +0,0 @@
-2020-10-27 18:21:20,964 - train - INFO - ConvModel(
-  (conv1): Conv2d(1, 32, kernel_size=(3, 3), stride=(1, 1), padding=(1, 1))
-  (bn1): BatchNorm2d(32, eps=1e-05, momentum=0.1, affine=True, track_running_stats=True)
-  (conv2): Conv2d(32, 32, kernel_size=(3, 3), stride=(1, 1), padding=(1, 1))
-  (bn2): BatchNorm2d(32, eps=1e-05, momentum=0.1, affine=True, track_running_stats=True)
-  (conv3): Conv2d(32, 64, kernel_size=(3, 3), stride=(1, 1), padding=(1, 1))
-  (bn3): BatchNorm2d(64, eps=1e-05, momentum=0.1, affine=True, track_running_stats=True)
-  (conv4): Conv2d(64, 64, kernel_size=(3, 3), stride=(1, 1), padding=(1, 1))
-  (bn4): BatchNorm2d(64, eps=1e-05, momentum=0.1, affine=True, track_running_stats=True)
-  (conv5): Conv2d(64, 128, kernel_size=(3, 3), stride=(1, 1), padding=(1, 1))
-  (bn5): BatchNorm2d(128, eps=1e-05, momentum=0.1, affine=True, track_running_stats=True)
-  (conv6): Conv2d(128, 128, kernel_size=(3, 3), stride=(1, 1), padding=(1, 1))
-  (bn6): BatchNorm2d(128, eps=1e-05, momentum=0.1, affine=True, track_running_stats=True)
-  (conv7): Conv2d(128, 256, kernel_size=(3, 3), stride=(1, 1), padding=(1, 1))
-  (bn7): BatchNorm2d(256, eps=1e-05, momentum=0.1, affine=True, track_running_stats=True)
-  (conv8): Conv2d(256, 256, kernel_size=(3, 3), stride=(1, 1), padding=(1, 1))
-  (bn8): BatchNorm2d(256, eps=1e-05, momentum=0.1, affine=True, track_running_stats=True)
-  (dense1): Linear(in_features=217088, out_features=500, bias=True)
-  (dropout): Dropout(p=0.5, inplace=False)
-  (dense2): Linear(in_features=500, out_features=50, bias=True)
-)
Index: saved/log/My_First_Conv_Model/1027_182248/info.log
===================================================================
--- saved/log/My_First_Conv_Model/1027_182248/info.log	(revision 97e8a598580c3db2483a78021892cac00be810a9)
+++ saved/log/My_First_Conv_Model/1027_182248/info.log	(revision 97e8a598580c3db2483a78021892cac00be810a9)
@@ -1,21 +0,0 @@
-2020-10-27 18:23:17,151 - train - INFO - ConvModel(
-  (conv1): Conv2d(1, 32, kernel_size=(3, 3), stride=(1, 1), padding=(1, 1))
-  (bn1): BatchNorm2d(32, eps=1e-05, momentum=0.1, affine=True, track_running_stats=True)
-  (conv2): Conv2d(32, 32, kernel_size=(3, 3), stride=(1, 1), padding=(1, 1))
-  (bn2): BatchNorm2d(32, eps=1e-05, momentum=0.1, affine=True, track_running_stats=True)
-  (conv3): Conv2d(32, 64, kernel_size=(3, 3), stride=(1, 1), padding=(1, 1))
-  (bn3): BatchNorm2d(64, eps=1e-05, momentum=0.1, affine=True, track_running_stats=True)
-  (conv4): Conv2d(64, 64, kernel_size=(3, 3), stride=(1, 1), padding=(1, 1))
-  (bn4): BatchNorm2d(64, eps=1e-05, momentum=0.1, affine=True, track_running_stats=True)
-  (conv5): Conv2d(64, 128, kernel_size=(3, 3), stride=(1, 1), padding=(1, 1))
-  (bn5): BatchNorm2d(128, eps=1e-05, momentum=0.1, affine=True, track_running_stats=True)
-  (conv6): Conv2d(128, 128, kernel_size=(3, 3), stride=(1, 1), padding=(1, 1))
-  (bn6): BatchNorm2d(128, eps=1e-05, momentum=0.1, affine=True, track_running_stats=True)
-  (conv7): Conv2d(128, 256, kernel_size=(3, 3), stride=(1, 1), padding=(1, 1))
-  (bn7): BatchNorm2d(256, eps=1e-05, momentum=0.1, affine=True, track_running_stats=True)
-  (conv8): Conv2d(256, 256, kernel_size=(3, 3), stride=(1, 1), padding=(1, 1))
-  (bn8): BatchNorm2d(256, eps=1e-05, momentum=0.1, affine=True, track_running_stats=True)
-  (dense1): Linear(in_features=217088, out_features=500, bias=True)
-  (dropout): Dropout(p=0.5, inplace=False)
-  (dense2): Linear(in_features=500, out_features=50, bias=True)
-)
Index: saved/log/My_First_Conv_Model/1027_183121/info.log
===================================================================
--- saved/log/My_First_Conv_Model/1027_183121/info.log	(revision 97e8a598580c3db2483a78021892cac00be810a9)
+++ saved/log/My_First_Conv_Model/1027_183121/info.log	(revision 97e8a598580c3db2483a78021892cac00be810a9)
@@ -1,21 +0,0 @@
-2020-10-27 18:31:47,253 - train - INFO - ConvModel(
-  (conv1): Conv2d(1, 32, kernel_size=(3, 3), stride=(1, 1), padding=(1, 1))
-  (bn1): BatchNorm2d(32, eps=1e-05, momentum=0.1, affine=True, track_running_stats=True)
-  (conv2): Conv2d(32, 32, kernel_size=(3, 3), stride=(1, 1), padding=(1, 1))
-  (bn2): BatchNorm2d(32, eps=1e-05, momentum=0.1, affine=True, track_running_stats=True)
-  (conv3): Conv2d(32, 64, kernel_size=(3, 3), stride=(1, 1), padding=(1, 1))
-  (bn3): BatchNorm2d(64, eps=1e-05, momentum=0.1, affine=True, track_running_stats=True)
-  (conv4): Conv2d(64, 64, kernel_size=(3, 3), stride=(1, 1), padding=(1, 1))
-  (bn4): BatchNorm2d(64, eps=1e-05, momentum=0.1, affine=True, track_running_stats=True)
-  (conv5): Conv2d(64, 128, kernel_size=(3, 3), stride=(1, 1), padding=(1, 1))
-  (bn5): BatchNorm2d(128, eps=1e-05, momentum=0.1, affine=True, track_running_stats=True)
-  (conv6): Conv2d(128, 128, kernel_size=(3, 3), stride=(1, 1), padding=(1, 1))
-  (bn6): BatchNorm2d(128, eps=1e-05, momentum=0.1, affine=True, track_running_stats=True)
-  (conv7): Conv2d(128, 256, kernel_size=(3, 3), stride=(1, 1), padding=(1, 1))
-  (bn7): BatchNorm2d(256, eps=1e-05, momentum=0.1, affine=True, track_running_stats=True)
-  (conv8): Conv2d(256, 256, kernel_size=(3, 3), stride=(1, 1), padding=(1, 1))
-  (bn8): BatchNorm2d(256, eps=1e-05, momentum=0.1, affine=True, track_running_stats=True)
-  (dense1): Linear(in_features=217088, out_features=500, bias=True)
-  (dropout): Dropout(p=0.5, inplace=False)
-  (dense2): Linear(in_features=500, out_features=50, bias=True)
-)
Index: saved/log/My_First_Conv_Model/1027_183321/info.log
===================================================================
--- saved/log/My_First_Conv_Model/1027_183321/info.log	(revision 97e8a598580c3db2483a78021892cac00be810a9)
+++ saved/log/My_First_Conv_Model/1027_183321/info.log	(revision 97e8a598580c3db2483a78021892cac00be810a9)
@@ -1,21 +0,0 @@
-2020-10-27 18:33:48,832 - train - INFO - ConvModel(
-  (conv1): Conv2d(1, 32, kernel_size=(3, 3), stride=(1, 1), padding=(1, 1))
-  (bn1): BatchNorm2d(32, eps=1e-05, momentum=0.1, affine=True, track_running_stats=True)
-  (conv2): Conv2d(32, 32, kernel_size=(3, 3), stride=(1, 1), padding=(1, 1))
-  (bn2): BatchNorm2d(32, eps=1e-05, momentum=0.1, affine=True, track_running_stats=True)
-  (conv3): Conv2d(32, 64, kernel_size=(3, 3), stride=(1, 1), padding=(1, 1))
-  (bn3): BatchNorm2d(64, eps=1e-05, momentum=0.1, affine=True, track_running_stats=True)
-  (conv4): Conv2d(64, 64, kernel_size=(3, 3), stride=(1, 1), padding=(1, 1))
-  (bn4): BatchNorm2d(64, eps=1e-05, momentum=0.1, affine=True, track_running_stats=True)
-  (conv5): Conv2d(64, 128, kernel_size=(3, 3), stride=(1, 1), padding=(1, 1))
-  (bn5): BatchNorm2d(128, eps=1e-05, momentum=0.1, affine=True, track_running_stats=True)
-  (conv6): Conv2d(128, 128, kernel_size=(3, 3), stride=(1, 1), padding=(1, 1))
-  (bn6): BatchNorm2d(128, eps=1e-05, momentum=0.1, affine=True, track_running_stats=True)
-  (conv7): Conv2d(128, 256, kernel_size=(3, 3), stride=(1, 1), padding=(1, 1))
-  (bn7): BatchNorm2d(256, eps=1e-05, momentum=0.1, affine=True, track_running_stats=True)
-  (conv8): Conv2d(256, 256, kernel_size=(3, 3), stride=(1, 1), padding=(1, 1))
-  (bn8): BatchNorm2d(256, eps=1e-05, momentum=0.1, affine=True, track_running_stats=True)
-  (dense1): Linear(in_features=217088, out_features=500, bias=True)
-  (dropout): Dropout(p=0.5, inplace=False)
-  (dense2): Linear(in_features=500, out_features=50, bias=True)
-)
Index: saved/log/My_First_Conv_Model/1027_183430/info.log
===================================================================
--- saved/log/My_First_Conv_Model/1027_183430/info.log	(revision 97e8a598580c3db2483a78021892cac00be810a9)
+++ saved/log/My_First_Conv_Model/1027_183430/info.log	(revision 97e8a598580c3db2483a78021892cac00be810a9)
@@ -1,21 +0,0 @@
-2020-10-27 18:34:56,904 - train - INFO - ConvModel(
-  (conv1): Conv2d(1, 32, kernel_size=(3, 3), stride=(1, 1), padding=(1, 1))
-  (bn1): BatchNorm2d(32, eps=1e-05, momentum=0.1, affine=True, track_running_stats=True)
-  (conv2): Conv2d(32, 32, kernel_size=(3, 3), stride=(1, 1), padding=(1, 1))
-  (bn2): BatchNorm2d(32, eps=1e-05, momentum=0.1, affine=True, track_running_stats=True)
-  (conv3): Conv2d(32, 64, kernel_size=(3, 3), stride=(1, 1), padding=(1, 1))
-  (bn3): BatchNorm2d(64, eps=1e-05, momentum=0.1, affine=True, track_running_stats=True)
-  (conv4): Conv2d(64, 64, kernel_size=(3, 3), stride=(1, 1), padding=(1, 1))
-  (bn4): BatchNorm2d(64, eps=1e-05, momentum=0.1, affine=True, track_running_stats=True)
-  (conv5): Conv2d(64, 128, kernel_size=(3, 3), stride=(1, 1), padding=(1, 1))
-  (bn5): BatchNorm2d(128, eps=1e-05, momentum=0.1, affine=True, track_running_stats=True)
-  (conv6): Conv2d(128, 128, kernel_size=(3, 3), stride=(1, 1), padding=(1, 1))
-  (bn6): BatchNorm2d(128, eps=1e-05, momentum=0.1, affine=True, track_running_stats=True)
-  (conv7): Conv2d(128, 256, kernel_size=(3, 3), stride=(1, 1), padding=(1, 1))
-  (bn7): BatchNorm2d(256, eps=1e-05, momentum=0.1, affine=True, track_running_stats=True)
-  (conv8): Conv2d(256, 256, kernel_size=(3, 3), stride=(1, 1), padding=(1, 1))
-  (bn8): BatchNorm2d(256, eps=1e-05, momentum=0.1, affine=True, track_running_stats=True)
-  (dense1): Linear(in_features=217088, out_features=500, bias=True)
-  (dropout): Dropout(p=0.5, inplace=False)
-  (dense2): Linear(in_features=500, out_features=50, bias=True)
-)
Index: saved/log/My_First_Conv_Model/1027_183611/info.log
===================================================================
--- saved/log/My_First_Conv_Model/1027_183611/info.log	(revision 97e8a598580c3db2483a78021892cac00be810a9)
+++ saved/log/My_First_Conv_Model/1027_183611/info.log	(revision 97e8a598580c3db2483a78021892cac00be810a9)
@@ -1,21 +0,0 @@
-2020-10-27 18:36:38,207 - train - INFO - ConvModel(
-  (conv1): Conv2d(1, 32, kernel_size=(3, 3), stride=(1, 1), padding=(1, 1))
-  (bn1): BatchNorm2d(32, eps=1e-05, momentum=0.1, affine=True, track_running_stats=True)
-  (conv2): Conv2d(32, 32, kernel_size=(3, 3), stride=(1, 1), padding=(1, 1))
-  (bn2): BatchNorm2d(32, eps=1e-05, momentum=0.1, affine=True, track_running_stats=True)
-  (conv3): Conv2d(32, 64, kernel_size=(3, 3), stride=(1, 1), padding=(1, 1))
-  (bn3): BatchNorm2d(64, eps=1e-05, momentum=0.1, affine=True, track_running_stats=True)
-  (conv4): Conv2d(64, 64, kernel_size=(3, 3), stride=(1, 1), padding=(1, 1))
-  (bn4): BatchNorm2d(64, eps=1e-05, momentum=0.1, affine=True, track_running_stats=True)
-  (conv5): Conv2d(64, 128, kernel_size=(3, 3), stride=(1, 1), padding=(1, 1))
-  (bn5): BatchNorm2d(128, eps=1e-05, momentum=0.1, affine=True, track_running_stats=True)
-  (conv6): Conv2d(128, 128, kernel_size=(3, 3), stride=(1, 1), padding=(1, 1))
-  (bn6): BatchNorm2d(128, eps=1e-05, momentum=0.1, affine=True, track_running_stats=True)
-  (conv7): Conv2d(128, 256, kernel_size=(3, 3), stride=(1, 1), padding=(1, 1))
-  (bn7): BatchNorm2d(256, eps=1e-05, momentum=0.1, affine=True, track_running_stats=True)
-  (conv8): Conv2d(256, 256, kernel_size=(3, 3), stride=(1, 1), padding=(1, 1))
-  (bn8): BatchNorm2d(256, eps=1e-05, momentum=0.1, affine=True, track_running_stats=True)
-  (dense1): Linear(in_features=217088, out_features=500, bias=True)
-  (dropout): Dropout(p=0.5, inplace=False)
-  (dense2): Linear(in_features=500, out_features=50, bias=True)
-)
Index: saved/log/My_First_Conv_Model/1027_183743/info.log
===================================================================
--- saved/log/My_First_Conv_Model/1027_183743/info.log	(revision 97e8a598580c3db2483a78021892cac00be810a9)
+++ saved/log/My_First_Conv_Model/1027_183743/info.log	(revision 97e8a598580c3db2483a78021892cac00be810a9)
@@ -1,21 +0,0 @@
-2020-10-27 18:38:36,152 - train - INFO - ConvModel(
-  (conv1): Conv2d(1, 32, kernel_size=(3, 3), stride=(1, 1), padding=(1, 1))
-  (bn1): BatchNorm2d(32, eps=1e-05, momentum=0.1, affine=True, track_running_stats=True)
-  (conv2): Conv2d(32, 32, kernel_size=(3, 3), stride=(1, 1), padding=(1, 1))
-  (bn2): BatchNorm2d(32, eps=1e-05, momentum=0.1, affine=True, track_running_stats=True)
-  (conv3): Conv2d(32, 64, kernel_size=(3, 3), stride=(1, 1), padding=(1, 1))
-  (bn3): BatchNorm2d(64, eps=1e-05, momentum=0.1, affine=True, track_running_stats=True)
-  (conv4): Conv2d(64, 64, kernel_size=(3, 3), stride=(1, 1), padding=(1, 1))
-  (bn4): BatchNorm2d(64, eps=1e-05, momentum=0.1, affine=True, track_running_stats=True)
-  (conv5): Conv2d(64, 128, kernel_size=(3, 3), stride=(1, 1), padding=(1, 1))
-  (bn5): BatchNorm2d(128, eps=1e-05, momentum=0.1, affine=True, track_running_stats=True)
-  (conv6): Conv2d(128, 128, kernel_size=(3, 3), stride=(1, 1), padding=(1, 1))
-  (bn6): BatchNorm2d(128, eps=1e-05, momentum=0.1, affine=True, track_running_stats=True)
-  (conv7): Conv2d(128, 256, kernel_size=(3, 3), stride=(1, 1), padding=(1, 1))
-  (bn7): BatchNorm2d(256, eps=1e-05, momentum=0.1, affine=True, track_running_stats=True)
-  (conv8): Conv2d(256, 256, kernel_size=(3, 3), stride=(1, 1), padding=(1, 1))
-  (bn8): BatchNorm2d(256, eps=1e-05, momentum=0.1, affine=True, track_running_stats=True)
-  (dense1): Linear(in_features=217088, out_features=500, bias=True)
-  (dropout): Dropout(p=0.5, inplace=False)
-  (dense2): Linear(in_features=500, out_features=50, bias=True)
-)
Index: saved/log/My_First_Conv_Model/1027_184516/info.log
===================================================================
--- saved/log/My_First_Conv_Model/1027_184516/info.log	(revision 97e8a598580c3db2483a78021892cac00be810a9)
+++ saved/log/My_First_Conv_Model/1027_184516/info.log	(revision 97e8a598580c3db2483a78021892cac00be810a9)
@@ -1,21 +0,0 @@
-2020-10-27 18:45:42,543 - train - INFO - ConvModel(
-  (conv1): Conv2d(1, 32, kernel_size=(3, 3), stride=(1, 1), padding=(1, 1))
-  (bn1): BatchNorm2d(32, eps=1e-05, momentum=0.1, affine=True, track_running_stats=True)
-  (conv2): Conv2d(32, 32, kernel_size=(3, 3), stride=(1, 1), padding=(1, 1))
-  (bn2): BatchNorm2d(32, eps=1e-05, momentum=0.1, affine=True, track_running_stats=True)
-  (conv3): Conv2d(32, 64, kernel_size=(3, 3), stride=(1, 1), padding=(1, 1))
-  (bn3): BatchNorm2d(64, eps=1e-05, momentum=0.1, affine=True, track_running_stats=True)
-  (conv4): Conv2d(64, 64, kernel_size=(3, 3), stride=(1, 1), padding=(1, 1))
-  (bn4): BatchNorm2d(64, eps=1e-05, momentum=0.1, affine=True, track_running_stats=True)
-  (conv5): Conv2d(64, 128, kernel_size=(3, 3), stride=(1, 1), padding=(1, 1))
-  (bn5): BatchNorm2d(128, eps=1e-05, momentum=0.1, affine=True, track_running_stats=True)
-  (conv6): Conv2d(128, 128, kernel_size=(3, 3), stride=(1, 1), padding=(1, 1))
-  (bn6): BatchNorm2d(128, eps=1e-05, momentum=0.1, affine=True, track_running_stats=True)
-  (conv7): Conv2d(128, 256, kernel_size=(3, 3), stride=(1, 1), padding=(1, 1))
-  (bn7): BatchNorm2d(256, eps=1e-05, momentum=0.1, affine=True, track_running_stats=True)
-  (conv8): Conv2d(256, 256, kernel_size=(3, 3), stride=(1, 1), padding=(1, 1))
-  (bn8): BatchNorm2d(256, eps=1e-05, momentum=0.1, affine=True, track_running_stats=True)
-  (dense1): Linear(in_features=217088, out_features=500, bias=True)
-  (dropout): Dropout(p=0.5, inplace=False)
-  (dense2): Linear(in_features=500, out_features=50, bias=True)
-)
Index: saved/log/My_First_Conv_Model/1027_184720/info.log
===================================================================
--- saved/log/My_First_Conv_Model/1027_184720/info.log	(revision 97e8a598580c3db2483a78021892cac00be810a9)
+++ saved/log/My_First_Conv_Model/1027_184720/info.log	(revision 97e8a598580c3db2483a78021892cac00be810a9)
@@ -1,21 +0,0 @@
-2020-10-27 18:47:46,461 - train - INFO - ConvModel(
-  (conv1): Conv2d(1, 32, kernel_size=(3, 3), stride=(1, 1), padding=(1, 1))
-  (bn1): BatchNorm2d(32, eps=1e-05, momentum=0.1, affine=True, track_running_stats=True)
-  (conv2): Conv2d(32, 32, kernel_size=(3, 3), stride=(1, 1), padding=(1, 1))
-  (bn2): BatchNorm2d(32, eps=1e-05, momentum=0.1, affine=True, track_running_stats=True)
-  (conv3): Conv2d(32, 64, kernel_size=(3, 3), stride=(1, 1), padding=(1, 1))
-  (bn3): BatchNorm2d(64, eps=1e-05, momentum=0.1, affine=True, track_running_stats=True)
-  (conv4): Conv2d(64, 64, kernel_size=(3, 3), stride=(1, 1), padding=(1, 1))
-  (bn4): BatchNorm2d(64, eps=1e-05, momentum=0.1, affine=True, track_running_stats=True)
-  (conv5): Conv2d(64, 128, kernel_size=(3, 3), stride=(1, 1), padding=(1, 1))
-  (bn5): BatchNorm2d(128, eps=1e-05, momentum=0.1, affine=True, track_running_stats=True)
-  (conv6): Conv2d(128, 128, kernel_size=(3, 3), stride=(1, 1), padding=(1, 1))
-  (bn6): BatchNorm2d(128, eps=1e-05, momentum=0.1, affine=True, track_running_stats=True)
-  (conv7): Conv2d(128, 256, kernel_size=(3, 3), stride=(1, 1), padding=(1, 1))
-  (bn7): BatchNorm2d(256, eps=1e-05, momentum=0.1, affine=True, track_running_stats=True)
-  (conv8): Conv2d(256, 256, kernel_size=(3, 3), stride=(1, 1), padding=(1, 1))
-  (bn8): BatchNorm2d(256, eps=1e-05, momentum=0.1, affine=True, track_running_stats=True)
-  (dense1): Linear(in_features=217088, out_features=500, bias=True)
-  (dropout): Dropout(p=0.5, inplace=False)
-  (dense2): Linear(in_features=500, out_features=50, bias=True)
-)
Index: saved/log/My_First_Conv_Model/1027_184809/info.log
===================================================================
--- saved/log/My_First_Conv_Model/1027_184809/info.log	(revision 97e8a598580c3db2483a78021892cac00be810a9)
+++ saved/log/My_First_Conv_Model/1027_184809/info.log	(revision 97e8a598580c3db2483a78021892cac00be810a9)
@@ -1,21 +0,0 @@
-2020-10-27 18:48:37,662 - train - INFO - ConvModel(
-  (conv1): Conv2d(1, 32, kernel_size=(3, 3), stride=(1, 1), padding=(1, 1))
-  (bn1): BatchNorm2d(32, eps=1e-05, momentum=0.1, affine=True, track_running_stats=True)
-  (conv2): Conv2d(32, 32, kernel_size=(3, 3), stride=(1, 1), padding=(1, 1))
-  (bn2): BatchNorm2d(32, eps=1e-05, momentum=0.1, affine=True, track_running_stats=True)
-  (conv3): Conv2d(32, 64, kernel_size=(3, 3), stride=(1, 1), padding=(1, 1))
-  (bn3): BatchNorm2d(64, eps=1e-05, momentum=0.1, affine=True, track_running_stats=True)
-  (conv4): Conv2d(64, 64, kernel_size=(3, 3), stride=(1, 1), padding=(1, 1))
-  (bn4): BatchNorm2d(64, eps=1e-05, momentum=0.1, affine=True, track_running_stats=True)
-  (conv5): Conv2d(64, 128, kernel_size=(3, 3), stride=(1, 1), padding=(1, 1))
-  (bn5): BatchNorm2d(128, eps=1e-05, momentum=0.1, affine=True, track_running_stats=True)
-  (conv6): Conv2d(128, 128, kernel_size=(3, 3), stride=(1, 1), padding=(1, 1))
-  (bn6): BatchNorm2d(128, eps=1e-05, momentum=0.1, affine=True, track_running_stats=True)
-  (conv7): Conv2d(128, 256, kernel_size=(3, 3), stride=(1, 1), padding=(1, 1))
-  (bn7): BatchNorm2d(256, eps=1e-05, momentum=0.1, affine=True, track_running_stats=True)
-  (conv8): Conv2d(256, 256, kernel_size=(3, 3), stride=(1, 1), padding=(1, 1))
-  (bn8): BatchNorm2d(256, eps=1e-05, momentum=0.1, affine=True, track_running_stats=True)
-  (dense1): Linear(in_features=217088, out_features=500, bias=True)
-  (dropout): Dropout(p=0.5, inplace=False)
-  (dense2): Linear(in_features=500, out_features=50, bias=True)
-)
Index: saved/log/My_First_Conv_Model/1027_185001/info.log
===================================================================
--- saved/log/My_First_Conv_Model/1027_185001/info.log	(revision 97e8a598580c3db2483a78021892cac00be810a9)
+++ saved/log/My_First_Conv_Model/1027_185001/info.log	(revision 97e8a598580c3db2483a78021892cac00be810a9)
@@ -1,21 +0,0 @@
-2020-10-27 18:50:30,682 - train - INFO - ConvModel(
-  (conv1): Conv2d(1, 32, kernel_size=(3, 3), stride=(1, 1), padding=(1, 1))
-  (bn1): BatchNorm2d(32, eps=1e-05, momentum=0.1, affine=True, track_running_stats=True)
-  (conv2): Conv2d(32, 32, kernel_size=(3, 3), stride=(1, 1), padding=(1, 1))
-  (bn2): BatchNorm2d(32, eps=1e-05, momentum=0.1, affine=True, track_running_stats=True)
-  (conv3): Conv2d(32, 64, kernel_size=(3, 3), stride=(1, 1), padding=(1, 1))
-  (bn3): BatchNorm2d(64, eps=1e-05, momentum=0.1, affine=True, track_running_stats=True)
-  (conv4): Conv2d(64, 64, kernel_size=(3, 3), stride=(1, 1), padding=(1, 1))
-  (bn4): BatchNorm2d(64, eps=1e-05, momentum=0.1, affine=True, track_running_stats=True)
-  (conv5): Conv2d(64, 128, kernel_size=(3, 3), stride=(1, 1), padding=(1, 1))
-  (bn5): BatchNorm2d(128, eps=1e-05, momentum=0.1, affine=True, track_running_stats=True)
-  (conv6): Conv2d(128, 128, kernel_size=(3, 3), stride=(1, 1), padding=(1, 1))
-  (bn6): BatchNorm2d(128, eps=1e-05, momentum=0.1, affine=True, track_running_stats=True)
-  (conv7): Conv2d(128, 256, kernel_size=(3, 3), stride=(1, 1), padding=(1, 1))
-  (bn7): BatchNorm2d(256, eps=1e-05, momentum=0.1, affine=True, track_running_stats=True)
-  (conv8): Conv2d(256, 256, kernel_size=(3, 3), stride=(1, 1), padding=(1, 1))
-  (bn8): BatchNorm2d(256, eps=1e-05, momentum=0.1, affine=True, track_running_stats=True)
-  (dense1): Linear(in_features=217088, out_features=500, bias=True)
-  (dropout): Dropout(p=0.5, inplace=False)
-  (dense2): Linear(in_features=500, out_features=50, bias=True)
-)
Index: saved/log/My_First_Conv_Model/1027_185208/info.log
===================================================================
--- saved/log/My_First_Conv_Model/1027_185208/info.log	(revision 97e8a598580c3db2483a78021892cac00be810a9)
+++ saved/log/My_First_Conv_Model/1027_185208/info.log	(revision 97e8a598580c3db2483a78021892cac00be810a9)
@@ -1,21 +0,0 @@
-2020-10-27 18:52:35,058 - train - INFO - ConvModel(
-  (conv1): Conv2d(1, 32, kernel_size=(3, 3), stride=(1, 1), padding=(1, 1))
-  (bn1): BatchNorm2d(32, eps=1e-05, momentum=0.1, affine=True, track_running_stats=True)
-  (conv2): Conv2d(32, 32, kernel_size=(3, 3), stride=(1, 1), padding=(1, 1))
-  (bn2): BatchNorm2d(32, eps=1e-05, momentum=0.1, affine=True, track_running_stats=True)
-  (conv3): Conv2d(32, 64, kernel_size=(3, 3), stride=(1, 1), padding=(1, 1))
-  (bn3): BatchNorm2d(64, eps=1e-05, momentum=0.1, affine=True, track_running_stats=True)
-  (conv4): Conv2d(64, 64, kernel_size=(3, 3), stride=(1, 1), padding=(1, 1))
-  (bn4): BatchNorm2d(64, eps=1e-05, momentum=0.1, affine=True, track_running_stats=True)
-  (conv5): Conv2d(64, 128, kernel_size=(3, 3), stride=(1, 1), padding=(1, 1))
-  (bn5): BatchNorm2d(128, eps=1e-05, momentum=0.1, affine=True, track_running_stats=True)
-  (conv6): Conv2d(128, 128, kernel_size=(3, 3), stride=(1, 1), padding=(1, 1))
-  (bn6): BatchNorm2d(128, eps=1e-05, momentum=0.1, affine=True, track_running_stats=True)
-  (conv7): Conv2d(128, 256, kernel_size=(3, 3), stride=(1, 1), padding=(1, 1))
-  (bn7): BatchNorm2d(256, eps=1e-05, momentum=0.1, affine=True, track_running_stats=True)
-  (conv8): Conv2d(256, 256, kernel_size=(3, 3), stride=(1, 1), padding=(1, 1))
-  (bn8): BatchNorm2d(256, eps=1e-05, momentum=0.1, affine=True, track_running_stats=True)
-  (dense1): Linear(in_features=217088, out_features=500, bias=True)
-  (dropout): Dropout(p=0.5, inplace=False)
-  (dense2): Linear(in_features=500, out_features=50, bias=True)
-)
Index: saved/log/My_First_Conv_Model/1027_185536/info.log
===================================================================
--- saved/log/My_First_Conv_Model/1027_185536/info.log	(revision 97e8a598580c3db2483a78021892cac00be810a9)
+++ saved/log/My_First_Conv_Model/1027_185536/info.log	(revision 97e8a598580c3db2483a78021892cac00be810a9)
@@ -1,21 +0,0 @@
-2020-10-27 18:56:02,747 - train - INFO - ConvModel(
-  (conv1): Conv2d(1, 32, kernel_size=(3, 3), stride=(1, 1), padding=(1, 1))
-  (bn1): BatchNorm2d(32, eps=1e-05, momentum=0.1, affine=True, track_running_stats=True)
-  (conv2): Conv2d(32, 32, kernel_size=(3, 3), stride=(1, 1), padding=(1, 1))
-  (bn2): BatchNorm2d(32, eps=1e-05, momentum=0.1, affine=True, track_running_stats=True)
-  (conv3): Conv2d(32, 64, kernel_size=(3, 3), stride=(1, 1), padding=(1, 1))
-  (bn3): BatchNorm2d(64, eps=1e-05, momentum=0.1, affine=True, track_running_stats=True)
-  (conv4): Conv2d(64, 64, kernel_size=(3, 3), stride=(1, 1), padding=(1, 1))
-  (bn4): BatchNorm2d(64, eps=1e-05, momentum=0.1, affine=True, track_running_stats=True)
-  (conv5): Conv2d(64, 128, kernel_size=(3, 3), stride=(1, 1), padding=(1, 1))
-  (bn5): BatchNorm2d(128, eps=1e-05, momentum=0.1, affine=True, track_running_stats=True)
-  (conv6): Conv2d(128, 128, kernel_size=(3, 3), stride=(1, 1), padding=(1, 1))
-  (bn6): BatchNorm2d(128, eps=1e-05, momentum=0.1, affine=True, track_running_stats=True)
-  (conv7): Conv2d(128, 256, kernel_size=(3, 3), stride=(1, 1), padding=(1, 1))
-  (bn7): BatchNorm2d(256, eps=1e-05, momentum=0.1, affine=True, track_running_stats=True)
-  (conv8): Conv2d(256, 256, kernel_size=(3, 3), stride=(1, 1), padding=(1, 1))
-  (bn8): BatchNorm2d(256, eps=1e-05, momentum=0.1, affine=True, track_running_stats=True)
-  (dense1): Linear(in_features=217088, out_features=500, bias=True)
-  (dropout): Dropout(p=0.5, inplace=False)
-  (dense2): Linear(in_features=500, out_features=50, bias=True)
-)
Index: saved/log/My_First_Conv_Model/1027_190058/info.log
===================================================================
--- saved/log/My_First_Conv_Model/1027_190058/info.log	(revision 97e8a598580c3db2483a78021892cac00be810a9)
+++ saved/log/My_First_Conv_Model/1027_190058/info.log	(revision 97e8a598580c3db2483a78021892cac00be810a9)
@@ -1,21 +0,0 @@
-2020-10-27 19:01:27,235 - train - INFO - ConvModel(
-  (conv1): Conv2d(1, 32, kernel_size=(3, 3), stride=(1, 1), padding=(1, 1))
-  (bn1): BatchNorm2d(32, eps=1e-05, momentum=0.1, affine=True, track_running_stats=True)
-  (conv2): Conv2d(32, 32, kernel_size=(3, 3), stride=(1, 1), padding=(1, 1))
-  (bn2): BatchNorm2d(32, eps=1e-05, momentum=0.1, affine=True, track_running_stats=True)
-  (conv3): Conv2d(32, 64, kernel_size=(3, 3), stride=(1, 1), padding=(1, 1))
-  (bn3): BatchNorm2d(64, eps=1e-05, momentum=0.1, affine=True, track_running_stats=True)
-  (conv4): Conv2d(64, 64, kernel_size=(3, 3), stride=(1, 1), padding=(1, 1))
-  (bn4): BatchNorm2d(64, eps=1e-05, momentum=0.1, affine=True, track_running_stats=True)
-  (conv5): Conv2d(64, 128, kernel_size=(3, 3), stride=(1, 1), padding=(1, 1))
-  (bn5): BatchNorm2d(128, eps=1e-05, momentum=0.1, affine=True, track_running_stats=True)
-  (conv6): Conv2d(128, 128, kernel_size=(3, 3), stride=(1, 1), padding=(1, 1))
-  (bn6): BatchNorm2d(128, eps=1e-05, momentum=0.1, affine=True, track_running_stats=True)
-  (conv7): Conv2d(128, 256, kernel_size=(3, 3), stride=(1, 1), padding=(1, 1))
-  (bn7): BatchNorm2d(256, eps=1e-05, momentum=0.1, affine=True, track_running_stats=True)
-  (conv8): Conv2d(256, 256, kernel_size=(3, 3), stride=(1, 1), padding=(1, 1))
-  (bn8): BatchNorm2d(256, eps=1e-05, momentum=0.1, affine=True, track_running_stats=True)
-  (dense1): Linear(in_features=217088, out_features=500, bias=True)
-  (dropout): Dropout(p=0.5, inplace=False)
-  (dense2): Linear(in_features=500, out_features=50, bias=True)
-)
Index: saved/log/My_First_Conv_Model/1027_190206/info.log
===================================================================
--- saved/log/My_First_Conv_Model/1027_190206/info.log	(revision 97e8a598580c3db2483a78021892cac00be810a9)
+++ saved/log/My_First_Conv_Model/1027_190206/info.log	(revision 97e8a598580c3db2483a78021892cac00be810a9)
@@ -1,21 +0,0 @@
-2020-10-27 19:02:35,295 - train - INFO - ConvModel(
-  (conv1): Conv2d(1, 32, kernel_size=(3, 3), stride=(1, 1), padding=(1, 1))
-  (bn1): BatchNorm2d(32, eps=1e-05, momentum=0.1, affine=True, track_running_stats=True)
-  (conv2): Conv2d(32, 32, kernel_size=(3, 3), stride=(1, 1), padding=(1, 1))
-  (bn2): BatchNorm2d(32, eps=1e-05, momentum=0.1, affine=True, track_running_stats=True)
-  (conv3): Conv2d(32, 64, kernel_size=(3, 3), stride=(1, 1), padding=(1, 1))
-  (bn3): BatchNorm2d(64, eps=1e-05, momentum=0.1, affine=True, track_running_stats=True)
-  (conv4): Conv2d(64, 64, kernel_size=(3, 3), stride=(1, 1), padding=(1, 1))
-  (bn4): BatchNorm2d(64, eps=1e-05, momentum=0.1, affine=True, track_running_stats=True)
-  (conv5): Conv2d(64, 128, kernel_size=(3, 3), stride=(1, 1), padding=(1, 1))
-  (bn5): BatchNorm2d(128, eps=1e-05, momentum=0.1, affine=True, track_running_stats=True)
-  (conv6): Conv2d(128, 128, kernel_size=(3, 3), stride=(1, 1), padding=(1, 1))
-  (bn6): BatchNorm2d(128, eps=1e-05, momentum=0.1, affine=True, track_running_stats=True)
-  (conv7): Conv2d(128, 256, kernel_size=(3, 3), stride=(1, 1), padding=(1, 1))
-  (bn7): BatchNorm2d(256, eps=1e-05, momentum=0.1, affine=True, track_running_stats=True)
-  (conv8): Conv2d(256, 256, kernel_size=(3, 3), stride=(1, 1), padding=(1, 1))
-  (bn8): BatchNorm2d(256, eps=1e-05, momentum=0.1, affine=True, track_running_stats=True)
-  (dense1): Linear(in_features=217088, out_features=500, bias=True)
-  (dropout): Dropout(p=0.5, inplace=False)
-  (dense2): Linear(in_features=500, out_features=50, bias=True)
-)
Index: saved/log/My_First_Conv_Model/1027_190303/info.log
===================================================================
--- saved/log/My_First_Conv_Model/1027_190303/info.log	(revision 97e8a598580c3db2483a78021892cac00be810a9)
+++ saved/log/My_First_Conv_Model/1027_190303/info.log	(revision 97e8a598580c3db2483a78021892cac00be810a9)
@@ -1,21 +0,0 @@
-2020-10-27 19:03:31,207 - train - INFO - ConvModel(
-  (conv1): Conv2d(1, 32, kernel_size=(3, 3), stride=(1, 1), padding=(1, 1))
-  (bn1): BatchNorm2d(32, eps=1e-05, momentum=0.1, affine=True, track_running_stats=True)
-  (conv2): Conv2d(32, 32, kernel_size=(3, 3), stride=(1, 1), padding=(1, 1))
-  (bn2): BatchNorm2d(32, eps=1e-05, momentum=0.1, affine=True, track_running_stats=True)
-  (conv3): Conv2d(32, 64, kernel_size=(3, 3), stride=(1, 1), padding=(1, 1))
-  (bn3): BatchNorm2d(64, eps=1e-05, momentum=0.1, affine=True, track_running_stats=True)
-  (conv4): Conv2d(64, 64, kernel_size=(3, 3), stride=(1, 1), padding=(1, 1))
-  (bn4): BatchNorm2d(64, eps=1e-05, momentum=0.1, affine=True, track_running_stats=True)
-  (conv5): Conv2d(64, 128, kernel_size=(3, 3), stride=(1, 1), padding=(1, 1))
-  (bn5): BatchNorm2d(128, eps=1e-05, momentum=0.1, affine=True, track_running_stats=True)
-  (conv6): Conv2d(128, 128, kernel_size=(3, 3), stride=(1, 1), padding=(1, 1))
-  (bn6): BatchNorm2d(128, eps=1e-05, momentum=0.1, affine=True, track_running_stats=True)
-  (conv7): Conv2d(128, 256, kernel_size=(3, 3), stride=(1, 1), padding=(1, 1))
-  (bn7): BatchNorm2d(256, eps=1e-05, momentum=0.1, affine=True, track_running_stats=True)
-  (conv8): Conv2d(256, 256, kernel_size=(3, 3), stride=(1, 1), padding=(1, 1))
-  (bn8): BatchNorm2d(256, eps=1e-05, momentum=0.1, affine=True, track_running_stats=True)
-  (dense1): Linear(in_features=217088, out_features=500, bias=True)
-  (dropout): Dropout(p=0.5, inplace=False)
-  (dense2): Linear(in_features=500, out_features=50, bias=True)
-)
Index: saved/log/My_First_Conv_Model/1027_190414/info.log
===================================================================
--- saved/log/My_First_Conv_Model/1027_190414/info.log	(revision 97e8a598580c3db2483a78021892cac00be810a9)
+++ saved/log/My_First_Conv_Model/1027_190414/info.log	(revision 97e8a598580c3db2483a78021892cac00be810a9)
@@ -1,21 +0,0 @@
-2020-10-27 19:04:42,579 - train - INFO - ConvModel(
-  (conv1): Conv2d(1, 32, kernel_size=(3, 3), stride=(1, 1), padding=(1, 1))
-  (bn1): BatchNorm2d(32, eps=1e-05, momentum=0.1, affine=True, track_running_stats=True)
-  (conv2): Conv2d(32, 32, kernel_size=(3, 3), stride=(1, 1), padding=(1, 1))
-  (bn2): BatchNorm2d(32, eps=1e-05, momentum=0.1, affine=True, track_running_stats=True)
-  (conv3): Conv2d(32, 64, kernel_size=(3, 3), stride=(1, 1), padding=(1, 1))
-  (bn3): BatchNorm2d(64, eps=1e-05, momentum=0.1, affine=True, track_running_stats=True)
-  (conv4): Conv2d(64, 64, kernel_size=(3, 3), stride=(1, 1), padding=(1, 1))
-  (bn4): BatchNorm2d(64, eps=1e-05, momentum=0.1, affine=True, track_running_stats=True)
-  (conv5): Conv2d(64, 128, kernel_size=(3, 3), stride=(1, 1), padding=(1, 1))
-  (bn5): BatchNorm2d(128, eps=1e-05, momentum=0.1, affine=True, track_running_stats=True)
-  (conv6): Conv2d(128, 128, kernel_size=(3, 3), stride=(1, 1), padding=(1, 1))
-  (bn6): BatchNorm2d(128, eps=1e-05, momentum=0.1, affine=True, track_running_stats=True)
-  (conv7): Conv2d(128, 256, kernel_size=(3, 3), stride=(1, 1), padding=(1, 1))
-  (bn7): BatchNorm2d(256, eps=1e-05, momentum=0.1, affine=True, track_running_stats=True)
-  (conv8): Conv2d(256, 256, kernel_size=(3, 3), stride=(1, 1), padding=(1, 1))
-  (bn8): BatchNorm2d(256, eps=1e-05, momentum=0.1, affine=True, track_running_stats=True)
-  (dense1): Linear(in_features=217088, out_features=500, bias=True)
-  (dropout): Dropout(p=0.5, inplace=False)
-  (dense2): Linear(in_features=500, out_features=50, bias=True)
-)
Index: saved/log/My_First_Conv_Model/1027_190731/info.log
===================================================================
--- saved/log/My_First_Conv_Model/1027_190731/info.log	(revision 97e8a598580c3db2483a78021892cac00be810a9)
+++ saved/log/My_First_Conv_Model/1027_190731/info.log	(revision 97e8a598580c3db2483a78021892cac00be810a9)
@@ -1,21 +0,0 @@
-2020-10-27 19:08:00,180 - train - INFO - ConvModel(
-  (conv1): Conv2d(1, 32, kernel_size=(3, 3), stride=(1, 1), padding=(1, 1))
-  (bn1): BatchNorm2d(32, eps=1e-05, momentum=0.1, affine=True, track_running_stats=True)
-  (conv2): Conv2d(32, 32, kernel_size=(3, 3), stride=(1, 1), padding=(1, 1))
-  (bn2): BatchNorm2d(32, eps=1e-05, momentum=0.1, affine=True, track_running_stats=True)
-  (conv3): Conv2d(32, 64, kernel_size=(3, 3), stride=(1, 1), padding=(1, 1))
-  (bn3): BatchNorm2d(64, eps=1e-05, momentum=0.1, affine=True, track_running_stats=True)
-  (conv4): Conv2d(64, 64, kernel_size=(3, 3), stride=(1, 1), padding=(1, 1))
-  (bn4): BatchNorm2d(64, eps=1e-05, momentum=0.1, affine=True, track_running_stats=True)
-  (conv5): Conv2d(64, 128, kernel_size=(3, 3), stride=(1, 1), padding=(1, 1))
-  (bn5): BatchNorm2d(128, eps=1e-05, momentum=0.1, affine=True, track_running_stats=True)
-  (conv6): Conv2d(128, 128, kernel_size=(3, 3), stride=(1, 1), padding=(1, 1))
-  (bn6): BatchNorm2d(128, eps=1e-05, momentum=0.1, affine=True, track_running_stats=True)
-  (conv7): Conv2d(128, 256, kernel_size=(3, 3), stride=(1, 1), padding=(1, 1))
-  (bn7): BatchNorm2d(256, eps=1e-05, momentum=0.1, affine=True, track_running_stats=True)
-  (conv8): Conv2d(256, 256, kernel_size=(3, 3), stride=(1, 1), padding=(1, 1))
-  (bn8): BatchNorm2d(256, eps=1e-05, momentum=0.1, affine=True, track_running_stats=True)
-  (dense1): Linear(in_features=217088, out_features=500, bias=True)
-  (dropout): Dropout(p=0.5, inplace=False)
-  (dense2): Linear(in_features=500, out_features=50, bias=True)
-)
Index: saved/log/My_First_Conv_Model/1027_190816/info.log
===================================================================
--- saved/log/My_First_Conv_Model/1027_190816/info.log	(revision 97e8a598580c3db2483a78021892cac00be810a9)
+++ saved/log/My_First_Conv_Model/1027_190816/info.log	(revision 97e8a598580c3db2483a78021892cac00be810a9)
@@ -1,21 +0,0 @@
-2020-10-27 19:08:45,034 - train - INFO - ConvModel(
-  (conv1): Conv2d(1, 32, kernel_size=(3, 3), stride=(1, 1), padding=(1, 1))
-  (bn1): BatchNorm2d(32, eps=1e-05, momentum=0.1, affine=True, track_running_stats=True)
-  (conv2): Conv2d(32, 32, kernel_size=(3, 3), stride=(1, 1), padding=(1, 1))
-  (bn2): BatchNorm2d(32, eps=1e-05, momentum=0.1, affine=True, track_running_stats=True)
-  (conv3): Conv2d(32, 64, kernel_size=(3, 3), stride=(1, 1), padding=(1, 1))
-  (bn3): BatchNorm2d(64, eps=1e-05, momentum=0.1, affine=True, track_running_stats=True)
-  (conv4): Conv2d(64, 64, kernel_size=(3, 3), stride=(1, 1), padding=(1, 1))
-  (bn4): BatchNorm2d(64, eps=1e-05, momentum=0.1, affine=True, track_running_stats=True)
-  (conv5): Conv2d(64, 128, kernel_size=(3, 3), stride=(1, 1), padding=(1, 1))
-  (bn5): BatchNorm2d(128, eps=1e-05, momentum=0.1, affine=True, track_running_stats=True)
-  (conv6): Conv2d(128, 128, kernel_size=(3, 3), stride=(1, 1), padding=(1, 1))
-  (bn6): BatchNorm2d(128, eps=1e-05, momentum=0.1, affine=True, track_running_stats=True)
-  (conv7): Conv2d(128, 256, kernel_size=(3, 3), stride=(1, 1), padding=(1, 1))
-  (bn7): BatchNorm2d(256, eps=1e-05, momentum=0.1, affine=True, track_running_stats=True)
-  (conv8): Conv2d(256, 256, kernel_size=(3, 3), stride=(1, 1), padding=(1, 1))
-  (bn8): BatchNorm2d(256, eps=1e-05, momentum=0.1, affine=True, track_running_stats=True)
-  (dense1): Linear(in_features=217088, out_features=500, bias=True)
-  (dropout): Dropout(p=0.5, inplace=False)
-  (dense2): Linear(in_features=500, out_features=50, bias=True)
-)
Index: saved/log/My_First_Conv_Model/1027_190900/info.log
===================================================================
--- saved/log/My_First_Conv_Model/1027_190900/info.log	(revision 97e8a598580c3db2483a78021892cac00be810a9)
+++ saved/log/My_First_Conv_Model/1027_190900/info.log	(revision 97e8a598580c3db2483a78021892cac00be810a9)
@@ -1,21 +0,0 @@
-2020-10-27 19:09:32,173 - train - INFO - ConvModel(
-  (conv1): Conv2d(1, 32, kernel_size=(3, 3), stride=(1, 1), padding=(1, 1))
-  (bn1): BatchNorm2d(32, eps=1e-05, momentum=0.1, affine=True, track_running_stats=True)
-  (conv2): Conv2d(32, 32, kernel_size=(3, 3), stride=(1, 1), padding=(1, 1))
-  (bn2): BatchNorm2d(32, eps=1e-05, momentum=0.1, affine=True, track_running_stats=True)
-  (conv3): Conv2d(32, 64, kernel_size=(3, 3), stride=(1, 1), padding=(1, 1))
-  (bn3): BatchNorm2d(64, eps=1e-05, momentum=0.1, affine=True, track_running_stats=True)
-  (conv4): Conv2d(64, 64, kernel_size=(3, 3), stride=(1, 1), padding=(1, 1))
-  (bn4): BatchNorm2d(64, eps=1e-05, momentum=0.1, affine=True, track_running_stats=True)
-  (conv5): Conv2d(64, 128, kernel_size=(3, 3), stride=(1, 1), padding=(1, 1))
-  (bn5): BatchNorm2d(128, eps=1e-05, momentum=0.1, affine=True, track_running_stats=True)
-  (conv6): Conv2d(128, 128, kernel_size=(3, 3), stride=(1, 1), padding=(1, 1))
-  (bn6): BatchNorm2d(128, eps=1e-05, momentum=0.1, affine=True, track_running_stats=True)
-  (conv7): Conv2d(128, 256, kernel_size=(3, 3), stride=(1, 1), padding=(1, 1))
-  (bn7): BatchNorm2d(256, eps=1e-05, momentum=0.1, affine=True, track_running_stats=True)
-  (conv8): Conv2d(256, 256, kernel_size=(3, 3), stride=(1, 1), padding=(1, 1))
-  (bn8): BatchNorm2d(256, eps=1e-05, momentum=0.1, affine=True, track_running_stats=True)
-  (dense1): Linear(in_features=217088, out_features=500, bias=True)
-  (dropout): Dropout(p=0.5, inplace=False)
-  (dense2): Linear(in_features=500, out_features=50, bias=True)
-)
Index: saved/log/My_First_Conv_Model/1027_190954/info.log
===================================================================
--- saved/log/My_First_Conv_Model/1027_190954/info.log	(revision 97e8a598580c3db2483a78021892cac00be810a9)
+++ saved/log/My_First_Conv_Model/1027_190954/info.log	(revision 97e8a598580c3db2483a78021892cac00be810a9)
@@ -1,21 +0,0 @@
-2020-10-27 19:10:22,514 - train - INFO - ConvModel(
-  (conv1): Conv2d(1, 32, kernel_size=(3, 3), stride=(1, 1), padding=(1, 1))
-  (bn1): BatchNorm2d(32, eps=1e-05, momentum=0.1, affine=True, track_running_stats=True)
-  (conv2): Conv2d(32, 32, kernel_size=(3, 3), stride=(1, 1), padding=(1, 1))
-  (bn2): BatchNorm2d(32, eps=1e-05, momentum=0.1, affine=True, track_running_stats=True)
-  (conv3): Conv2d(32, 64, kernel_size=(3, 3), stride=(1, 1), padding=(1, 1))
-  (bn3): BatchNorm2d(64, eps=1e-05, momentum=0.1, affine=True, track_running_stats=True)
-  (conv4): Conv2d(64, 64, kernel_size=(3, 3), stride=(1, 1), padding=(1, 1))
-  (bn4): BatchNorm2d(64, eps=1e-05, momentum=0.1, affine=True, track_running_stats=True)
-  (conv5): Conv2d(64, 128, kernel_size=(3, 3), stride=(1, 1), padding=(1, 1))
-  (bn5): BatchNorm2d(128, eps=1e-05, momentum=0.1, affine=True, track_running_stats=True)
-  (conv6): Conv2d(128, 128, kernel_size=(3, 3), stride=(1, 1), padding=(1, 1))
-  (bn6): BatchNorm2d(128, eps=1e-05, momentum=0.1, affine=True, track_running_stats=True)
-  (conv7): Conv2d(128, 256, kernel_size=(3, 3), stride=(1, 1), padding=(1, 1))
-  (bn7): BatchNorm2d(256, eps=1e-05, momentum=0.1, affine=True, track_running_stats=True)
-  (conv8): Conv2d(256, 256, kernel_size=(3, 3), stride=(1, 1), padding=(1, 1))
-  (bn8): BatchNorm2d(256, eps=1e-05, momentum=0.1, affine=True, track_running_stats=True)
-  (dense1): Linear(in_features=217088, out_features=500, bias=True)
-  (dropout): Dropout(p=0.5, inplace=False)
-  (dense2): Linear(in_features=500, out_features=50, bias=True)
-)
Index: saved/log/My_First_Conv_Model/1027_191038/info.log
===================================================================
--- saved/log/My_First_Conv_Model/1027_191038/info.log	(revision 97e8a598580c3db2483a78021892cac00be810a9)
+++ saved/log/My_First_Conv_Model/1027_191038/info.log	(revision 97e8a598580c3db2483a78021892cac00be810a9)
@@ -1,21 +0,0 @@
-2020-10-27 19:11:10,688 - train - INFO - ConvModel(
-  (conv1): Conv2d(1, 32, kernel_size=(3, 3), stride=(1, 1), padding=(1, 1))
-  (bn1): BatchNorm2d(32, eps=1e-05, momentum=0.1, affine=True, track_running_stats=True)
-  (conv2): Conv2d(32, 32, kernel_size=(3, 3), stride=(1, 1), padding=(1, 1))
-  (bn2): BatchNorm2d(32, eps=1e-05, momentum=0.1, affine=True, track_running_stats=True)
-  (conv3): Conv2d(32, 64, kernel_size=(3, 3), stride=(1, 1), padding=(1, 1))
-  (bn3): BatchNorm2d(64, eps=1e-05, momentum=0.1, affine=True, track_running_stats=True)
-  (conv4): Conv2d(64, 64, kernel_size=(3, 3), stride=(1, 1), padding=(1, 1))
-  (bn4): BatchNorm2d(64, eps=1e-05, momentum=0.1, affine=True, track_running_stats=True)
-  (conv5): Conv2d(64, 128, kernel_size=(3, 3), stride=(1, 1), padding=(1, 1))
-  (bn5): BatchNorm2d(128, eps=1e-05, momentum=0.1, affine=True, track_running_stats=True)
-  (conv6): Conv2d(128, 128, kernel_size=(3, 3), stride=(1, 1), padding=(1, 1))
-  (bn6): BatchNorm2d(128, eps=1e-05, momentum=0.1, affine=True, track_running_stats=True)
-  (conv7): Conv2d(128, 256, kernel_size=(3, 3), stride=(1, 1), padding=(1, 1))
-  (bn7): BatchNorm2d(256, eps=1e-05, momentum=0.1, affine=True, track_running_stats=True)
-  (conv8): Conv2d(256, 256, kernel_size=(3, 3), stride=(1, 1), padding=(1, 1))
-  (bn8): BatchNorm2d(256, eps=1e-05, momentum=0.1, affine=True, track_running_stats=True)
-  (dense1): Linear(in_features=217088, out_features=500, bias=True)
-  (dropout): Dropout(p=0.5, inplace=False)
-  (dense2): Linear(in_features=500, out_features=50, bias=True)
-)
Index: model/loss.py
IDEA additional info:
Subsystem: com.intellij.openapi.diff.impl.patch.BaseRevisionTextPatchEP
<+>import torch.nn.functional as F\n\n\ndef cross_entropy_loss(output, target):\n    return F.nn.CrossEntropyLoss(output, target)\n
Subsystem: com.intellij.openapi.diff.impl.patch.CharsetEP
<+>UTF-8
===================================================================
…
